SmartTrip-ML/model/model.tflite (tflite, 444508 bytes, 8 tensors)

arith.constant f4 [945, 64]
-0.611384 0.05915905 -0.83748424 -0.047669705 -1.3606112 -0.06440083 -0.332162 -0.20963082
-0.5689143 -0.916793 0.059417408 0.054813176 0.0952365 -0.051939864 -0.1736615 -0.2833899
-0.10418151 -0.010214375 0.102825515 0.006876139 0.02060799 0.030717617 -0.92527604 0.093631126
-0.13987237 -1.2847914 -0.705674 -1.026276 0.0034826854 -0.028292334 -1.1033494 -0.8797653
-0.5113148 -0.42546538 -0.101831004 -0.24132115 0.024585834 -0.40424144 -1.5750694 -0.34350702
0.16128288 -0.37244216 -1.4258125 -0.20137005 -0.51269376 -0.50908816 -0.43699235 -0.167841
0.08933938 -0.54328394 -0.6916452 -0.6212825 -0.1262787 -2.256527 -0.5518328 -0.10293417
-0.085230775 -0.042261846 -0.33709708 -0.034363884 0.0124097485 0.07208058 -0.30574676 -0.060881548
-0.05056452 0.024497205 -0.41514975 -1.118804 -0.33071938 0.00023095592 -0.14294715 -0.92674494
-0.14876221 -0.5858723 -0.6703028 -1.4004377 -1.2274208 -1.0676403 -0.8636548 -1.7503382
-1.1962651 -0.8389974 -1.0432482 -0.86784005 -0.17332883 -0.22570112 -0.75860125 -0.24787268
0.049936447 0.07387466 -1.165082 -2.0862896 -0.058821626 -0.014702634 -1.9348892 0.032073755
-0.05443944 0.0628421 -1.4216888 0.006458226 -0.61543465 -0.07332484 0.08505836 -0.037202645
-0.038096566 -0.7329546 -0.054132137 -1.099287 0.02900629 -0.09230482 -1.9145818 -0.13207681
-0.19931543 0.024539487 0.047822043 -0.984544 -0.49456823 -0.06647006 -0.7175418 -0.31940547
-1.9255158 -0.5284943 0.051072966 -1.5696096 0.043598056 -0.735002 0.0018320063 0.07045964
-0.02718637 -0.66942924 -0.015858132 -1.0829561 0.071323544 -0.06805531 -0.28445515 0.093768835
-0.091884114 -0.16879466 -1.8251345 0.021449726 -0.84435534 -0.13263442 -2.2191978 -0.17886564
-1.1085124 -0.057305343 -0.00032098204 -1.036781 -0.009011472 -0.45585746 -0.9545356 -0.2527049
0.03709183 0.04101934 -0.20438266 0.03009461 -0.25187477 -0.031423718 -0.26034376 -0.073714964
0.007761147 -0.056478165 -0.42136618 -1.044466 -0.14241469 -0.40036994 0.028868733 -0.9441326
0.16935503 0.06639199 -0.035566904 -0.4589448 0.08832114 -0.11802043 -1.4359841 -0.28171718
-0.0677577 -1.1238297 0.014453957 -0.5223145 -1.1910415 -0.017568933 0.10883594 -0.3715817
-0.70374477 -0.63572025 -0.33019775 -0.23063502 -0.059434053 -0.187778 0.0140491 -0.15132244
0.0071682143 -0.32156402 -0.72254574 -1.7927554 0.100499064 -0.030136531 -0.21269627 -0.6232836
0.023247404 -0.6844795 -1.0144948 -1.2092856 -1.0525626 0.08181633 -0.50017244 -0.50747603
-0.73817056 -0.28406134 -0.25359327 -0.98169607 0.050602548 -0.02712407 -1.656454 -0.10371787
-0.0755008 -0.8265241 -0.15968417 -0.261797 -0.007592532 -1.1291239 -0.017944528 -1.7790153
-0.10972118 -0.096363015 -0.50597787 0.009116392 -0.060445663 0.029304365 -0.69022846 -0.2699871
0.016299916 0.11295294 0.02396402 -0.35865933 0.027607424 -0.1396738 -0.8614112 -0.097751796
-0.17383146 -2.311263 0.04100978 -1.1863852 -0.1797073 -0.037717666 0.055603616 -0.12529635
-1.4134756 -0.06858887 0.015740857 -0.13080834 0.020701626 -0.9475204 0.08661553 -0.86108714
00000000: a983 1cbf c350 723d 5e65 56bf 4f41 43bd
00000010: 8228 aebf 95e4 83bd 2311 aabe 76a9 56be
00000020: 5ea4 11bf f2b2 6abf ab5f 733d c883 603d
00000030: 5b0b c33d e5be 54bd 52d4 31be 7b18 91be
00000040: 1e5d d5bd 325a 27bc 2f96 d23d 3c51 e13b
00000050: 16d2 a83c 83a3 fb3c e4de 6cbf adc1 bf3d
00000060: b43a 0fbe 0b74 a4bf 0da7 34bf 035d 83bf
00000070: c43d 643b 53c5 e7bc 8e3a 8dbf 4c38 61bf
00000080: 87e5 02bf 99d6 d9be c68c d0bd e41c 77be
00000090: 3b68 c93c bcf8 cebe e09b c9bf 27e0 afbe
000000a0: 5727 253e bdb0 bebe 0681 b6bf f333 4ebe
000000b0: e63f 03bf 9a53 02bf 76bd dfbe 83de 2bbe
000000c0: 91f7 b63d a814 0bbf a90f 31bf 5f0c 1fbf
000000d0: 344f 01be f06a 10c0 ea44 0dbf 26cf d2bd
000000e0: 798d aebd c21a 2dbd fd97 acbe 25c1 0cbd
000000f0: 4252 4b3c fc9e 933d d78a 9cbe ee5e 79bd
00000100: be1c 4fbd 5dae c83c 828e d4be f834 8fbf
00000110: 0d54 a9be c22c 7239 bd60 12be 283f 6dbf
00000120: 1f55 18be bafb 15bf f798 2bbf 8b41 b3bf
00000130: 201c 9dbf 70a8 88bf 7b18 5dbf 150b e0bf
00000140: 371f 99bf 89c8 56bf 2889 85bf c42a 5ebf
00000150: 1d7d 31be 321e 67be b133 42bf 56d2 7dbe
00000160: 298a 4c3d 994b 973d 6821 95bf c585 05c0
00000170: f2ee 70bd 51e3 70bc 73aa f7bf c55f 033d
00000180: e4fb 5ebd 5cb3 803d e6f9 b5bf 879f d33b
00000190: 208d 1dbf 552b 96bd 1433 ae3d cd61 18bd
000001a0: 250b 1cbd eaa2 3bbf a9b9 5dbd 70b5 8cbf
000001b0: 999e ed3c 4f0a bdbd 0411 f5bf 253f 07be
000001c0: 5819 4cbe 0907 c93c 0ce1 433d 130b 7cbf
000001d0: 0c38 fdbe 7421 88bd d2b0 37bf 1d89 a3be
000001e0: 4d77 f6bf 674b 07bf e331 513d f8e8 c8bf
000001f0: e093 323d 1729 3cbf ee1f f03a 254d 903d
00000200: f3b5 debc b75f 2bbf eae8 81bc 4e9e 8abf
00000210: 1412 923d 9560 8bbd 1ba4 91be e009 c03d
00000220: bd2d bcbd 82d8 2cbe 029e e9bf 56b7 af3c
00000230: ac27 58bf 51d1 07be 5607 0ec0 8e28 37be
00000240: bce3 8dbf 02b9 6abd 7b49 a8b9 3db5 84bf
00000250: daa4 13bc 2666 e9be 725c 74bf 8962 81be
00000260: 9aed 173d e503 283d b049 51be f988 f63c
00000270: bbf5 80be 28b6 00bd c74b 85be dff7 96bd
00000280: 3851 fe3b a655 67bd 4fbd d7be 10b1 85bf
00000290: 28d5 11be 4afd ccbe 1f7e ec3c adb2 71bf
000002a0: 686b 2d3e 86f8 873d 9aae 11bd d0fa eabe
000002b0: b7e1 b43d b2b4 f1bd 54ce b7bf 3c3d 90be
000002c0: 8dc4 8abd a7d9 8fbf 4ad0 6c3c 67b6 05bf
000002d0: 0c74 98bf b9ec 8fbc 61e5 de3d f53f bebe
000002e0: 9e28 34bf 90be 22bf ae0f a9be 962b 6cbe
000002f0: 1f71 73bd e048 40be 322e 663c 45f4 1abe
00000300: 57e3 ea3b 0aa4 a4be c2f8 38bf 0279 e5bf
00000310: 74d2 cd3d e3e0 f6bc 0dcd 59be 848f 1fbf
00000320: 5771 be3c 0c3a 2fbf f7da 81bf dfc9 9abf
00000330: 5fba 86bf 528f a73d 4d0b 00bf f3e9 01bf
00000340: bff8 3cbf 7d70 91be fad6 81be 6f50 7bbf
00000350: 9e44 4f3d 4c33 debc af06 d4bf 096a d4bd
00000360: 2aa0 9abd 1597 53bf 3f84 23be 420a 86be
00000370: c6ca f8bb 2287 90bf 6700 93bc c6b6 e3bf
00000380: 7fb5 e0bd f959 c5bd c487 01bf eb5c 153c
00000390: df95 77bd b50f f03c d0b2 30bf c03b 8abe
000003a0: 6787 853c df53 e73d 3150 c43c 32a2 b7be
000003b0: f728 e23c a606 0fbe 7285 5cbf 1832 c8bd
000003c0: e000 32be bceb 13c0 dff9 273d 78db 97bf
000003d0: 3105 38be d77d 1abd 9ec0 633d b04d 00be
000003e0: c5ec b4bf 5278 8cbd f8f2 803c 9ff2 05be
000003f0: 7596 a93c b290 72bf 7c63 b13d 3570 5cbf

arith.constant1 f4 [64, 128]
0.038026422 0.30518955 -0.3246249 -0.026634257 -0.101390414 -0.009263647 -0.106715634 -0.09736608
-0.017529326 0.033074073 -0.30262026 -0.10095166 -0.08894767 -0.034147408 -0.45181492 0.14332576
-0.65716213 -0.12051066 -0.033038616 -0.6871792 0.30961567 0.034872323 0.07775014 -0.12296301
-0.04340413 -0.061968036 -0.11244733 0.512865 -0.08079998 -0.11156215 -0.1782636 0.000771113
0.092693076 0.5372864 0.49993494 0.16762994 -0.22489013 0.4143928 -0.6781546 -0.06150364
-0.6003318 0.11699001 0.23507811 -0.21017987 0.01548168 -0.077583954 -0.057097483 0.0801238
-0.32137662 -0.816511 0.25500625 0.21282783 -0.042630438 0.3291547 0.127898 0.10585672
0.06191505 -0.0709145 0.04449108 0.108213045 0.23673324 0.29119757 -0.10704138 -0.23914753
0.06910348 0.0022156658 0.25911933 -0.03525362 0.582124 0.04554686 0.19588366 0.40901503
-0.24787337 0.4832497 0.120614775 -0.43527123 0.12425522 0.0049804696 -0.35767862 0.077037215
0.14059587 -0.13473512 -0.23912081 0.34214628 -0.22030844 -0.0018850616 -0.091832146 0.2228818
-0.36080796 0.02061453 0.10980912 -0.15451925 -0.0012001916 -0.1507087 0.24815546 0.09752265
0.046157703 -0.3474834 -0.21200755 0.24568066 0.1066669 -0.39868435 -0.27399033 0.055147693
0.025113873 0.009220629 -0.4618713 0.13670628 0.41805288 0.69497156 -0.03757686 0.025923274
-0.11358105 0.024795935 0.25433022 0.031172276 -0.05088993 -0.10670195 -0.26083365 -0.057555247
0.35997865 0.03311346 -0.14077069 -0.057789754 0.096836686 -0.24931715 0.3155849 0.10385396
0.40261012 0.30771753 0.008158702 -1.0344127 -0.059440803 -0.121202745 -0.029055687 0.02038106
0.19540274 -0.060014848 0.07337096 0.10720879 0.33522907 -0.15360871 -0.08084271 -0.0056066033
-0.07914297 0.17150404 -0.03760295 0.26385373 -1.3333156 0.038798265 0.029872676 -0.4096019
0.2274081 0.9860984 0.01863881 -0.13667925 0.24550772 -0.13584495 -0.47129235 0.07839423
-0.7006445 0.21215858 -0.032364674 0.1570763 0.06671319 -0.10784091 -0.015153578 -0.4966565
-0.002624281 -0.29556376 -0.1058024 -0.81229675 -1.3325745 0.0041302852 -0.11808502 -0.3253114
0.1043848 0.05642531 0.10668838 0.05965024 0.021208245 0.074755386 0.33147883 0.0208142
0.12974425 0.74035025 0.031044208 0.13973996 0.29343623 0.0055438937 0.04112271 0.0077993567
0.28717953 0.017205289 0.11520843 -0.043823045 0.09834069 0.01839733 0.16033171 0.038889136
0.19261509 0.02808997 0.0147805475 0.10037356 0.32455644 -0.24957319 0.12815411 0.016590802
-0.06820848 0.15229978 0.34525862 0.10693702 0.19719991 -0.09695086 0.0016415598 0.31281817
-0.0043768166 0.07691099 -0.35476106 0.15787697 0.7073782 0.095894895 0.07662461 0.07815073
0.30137226 0.0025210993 0.025699172 0.14784794 0.30537486 0.00051087857 0.2824647 0.40198234
1.5687369 -0.20830797 -0.018528657 -0.07489431 -0.2723897 -0.010847687 -0.020352304 -0.18814667
0.7012588 0.27966854 0.0043411767 0.099918045 0.19244832 0.14911444 0.16450515 0.9954131
0.030724943 0.04464959 0.23351738 0.7962001 -0.011211107 0.16774455 0.005340196 0.27431905
00000000: 98c1 1b3d ce41 9c3e 3c35 a6be 1630 dabc
00000010: c7a5 cfbd 8dc6 17bc ba8d dabd de67 c7bd
00000020: a999 8fbc ae78 073d 0bf1 9abe bebf cebd
00000030: 322a b6bd 27de 0bbd 4954 e7be fdc3 123e
00000040: c73b 28bf 4bce f6bd 8053 07bd faea 2fbf
00000050: f285 9e3e 48d6 0e3d 773b 9f3d 08d4 fbbd
00000060: 87c8 31bd 32d2 7dbd c94a e6bd 1f4b 033f
00000070: 767a a5bd b27a e4bd bc8a 36be 8424 4a3a
00000080: ded5 bd3d 9a8b 093f 79f7 ff3e 2fa7 2b3e
00000090: 9949 66be 4b2b d43e 8a9b 2dbf 3eeb 7bbd
000000a0: 58af 19bf 7598 ef3d 51b8 703e 6439 57be
000000b0: dfa6 7d3c 56e4 9ebd 0ddf 69bd f217 a43d
000000c0: 7a8b a4be dd06 51bf 2e90 823e 8aef 593e
000000d0: 419d 2ebd f786 a83e b1f7 023e 68cb d83d
000000e0: a39a 7d3d 9f3b 91bd 473c 363d cd9e dd3d
000000f0: 336a 723e d917 953e 8338 dbbd 17e3 74be
00000100: 2086 8d3d b434 113b 4aab 843e 1a66 10bd
00000110: 1406 153f 588f 3a3d ba95 483e 6b6a d13e
00000120: 84d2 7dbe 816c f73e e104 f73d dfdb debe
00000130: 8579 fe3d 3533 a33b a721 b7be b0c5 9d3d
00000140: 5df8 0f3e 01f8 09be 16dc 74be cc2d af3e
00000150: 8998 61be 2c14 f7ba 7e12 bcbd 203b 643e
00000160: d2bb b8be cedf a83c 9be3 e03d 4b3a 1ebe
00000170: bf4f 9dba 6253 1abe 771c 7e3e f5b9 c73d
00000180: dc0f 3d3d 58e9 b1be 8218 59be b693 7b3e
00000190: 2d74 da3d 5b20 ccbe 7648 8cbe 8ce2 613d
000001a0: 9cbb cd3c 1f12 173c 657a ecbe bbfc 0b3e
000001b0: 070b d63e a8e9 313f 32ea 19bd 0c5d d43c
000001c0: 2e9d e8bd d820 cb3c 9237 823e 005d ff3c
000001d0: f671 50bd 8d86 dabd fd8b 85be 0dbf 6bbd
000001e0: 1f4f b83e fba1 073d 3126 10be f3b4 6cbd
000001f0: 5052 c63d ff4c 7fbe 5894 a13e 63b1 d43d
00000200: ea22 ce3e 278d 9d3e 14ac 053c a367 84bf
00000210: 3378 73bd 2539 f8bd 3106 eebc 2ef6 a63c
00000220: a817 483e 21d2 75bd 8443 963d 4890 db3d
00000230: 25a3 ab3e 9a4b 1dbe dd90 a5bd 99b7 b7bb
00000240: b615 a2bd c19e 2f3e 8d05 1abd d617 873e
00000250: 16aa aabf eeea 1e3d 8bb7 f43c 57b7 d1be
00000260: abdd 683e f270 7c3f 6bb0 983c a5f5 0bbe
00000270: 6066 7b3e f01a 0bbe 3b4d f1be 278d a03d
00000280: 705d 33bf 1940 593e d290 04bd 9cd8 203e
00000290: eda0 883d b2db dcbd b646 78bc c349 febe
000002a0: 21fc 2bbb 2254 97be eeae d8bd aef2 4fbf
000002b0: cd91 aabf 5857 873b 8fd6 f1bd 378f a6be
000002c0: b3c7 d53d 3a1e 673d 707f da3d cf53 743d
000002d0: eabc ad3c 5a19 993d 98b7 a93e 8b82 aa3c
000002e0: addb 043e 9887 3d3f 6c50 fe3c fe17 0f3e
000002f0: 463d 963e 8da9 b53b 4970 283d bf91 ff3b
00000300: 3209 933e 1bf2 8c3c 66f2 eb3d cb7f 33bd
00000310: d866 c93d ffb5 963c ff2d 243e 374a 1f3d
00000320: e43c 453e f01c e63c 1c2a 723c a790 cd3d
00000330: 432c a63e 1d90 7fbe d53a 033e 6fe9 873c
00000340: e3b0 8bbd 79f4 1b3e bdc5 b03e cc01 db3d
00000350: c6ee 493e 2c8e c6bd 9b29 d73a b429 a03e
00000360: 666b 8fbb 8283 9d3d 3ea3 b5be 80aa 213e
00000370: bd16 353f 8b64 c43d 5ded 9c3d 7d0d a03d
00000380: 774d 9a3e 0739 253b 1287 d23c 7365 173e
00000390: 185a 9c3e 7bec 053a 379f 903e a1d0 cd3e
000003a0: 5fcc c83f af4e 55be 69c9 97bc 3062 99bd
000003b0: aa76 8bbe 7fba 31bc e0b9 a6bc 85a9 40be
000003c0: b285 333f b730 8f3e 6e40 8e3b d5a1 cc3d
000003d0: 2c11 453e 75b1 183e 0a74 283e 65d3 7e3f
000003e0: e0b2 fb3c 7de2 363d 2e1f 6f3e c5d3 4b3f
000003f0: caae 37bc 3ac5 2b3e d0fc ae3b 8c73 8c3e

arith.constant2 f4 [128, 256]
0.006640044 0.091968805 -0.14340578 0.29296738 0.22500002 -0.022729263 -0.083538465 -0.033156212
-0.8725112 -0.19006558 0.001118525 -0.22244376 0.25636232 0.11231852 0.10316874 0.17918281
-0.051222846 -0.0031757918 -0.049244497 0.23857999 -0.09859105 -0.03386957 0.087548524 0.88960767
0.20639613 0.22490501 0.11497583 -0.15127108 -0.13189504 0.074336834 0.2402971 0.17411593
-0.62012166 -0.14491376 0.16069633 0.108200155 -0.20094487 -0.28492236 0.035312116 -0.0436337
-0.20476721 0.023163531 0.059522133 0.031087698 -0.25728515 -0.052457526 -0.09465894 -0.046368983
0.009247561 -0.17616251 0.043098137 -0.12172647 0.7087605 -0.16767484 0.095221564 -0.10556169
-0.07019723 0.3388308 0.18701136 0.030678496 -0.061850034 0.08538727 -1.0401006 -0.53294426
0.14097537 0.13649876 -0.14665017 0.19356042 0.22205688 0.2271637 -0.6573293 0.3945163
-0.065824375 -0.1629599 0.21809168 0.050347187 0.05002044 -0.17729415 -0.14472236 -0.21555649
0.14062837 0.024311813 -0.17538136 -0.8970048 -0.37657836 -0.009494331 -0.14393297 -0.7314341
-0.016316786 -0.38047415 -0.21373107 -0.055873014 0.074916564 -0.19940774 -0.02586124 0.33844486
0.0011902221 0.14365146 -0.5500041 0.035539307 0.02827882 -0.5958413 0.23080127 -0.060113046
0.12808463 0.048879568 0.3172217 0.019223744 0.081521176 0.043500356 -0.28110436 -0.3027965
-0.026706692 -0.5247007 0.23965499 0.038796928 0.05918548 -0.053476784 0.05441994 -0.14985564
0.0068425736 -0.097837135 -0.09291096 0.24875657 0.054858442 -0.04089487 -0.5917803 0.18953145
0.14344974 -0.0019848086 -0.19596384 -0.08742177 -0.041795947 0.11580634 0.31725767 0.11953157
0.17348169 0.08416786 0.355399 0.45136985 0.087478705 0.027971253 0.14713944 0.03625539
-0.15175751 -0.0061993254 0.10386507 -0.2225594 0.007570693 0.14566284 0.20555468 0.24776393
-0.30596378 0.20093814 0.077055916 -0.59385306 -0.41456625 0.26714256 -0.6949301 0.049236614
0.24463584 0.066124216 -0.005902015 0.040263668 0.0043177176 0.39859766 0.015441977 0.17036162
-0.54219043 -0.9383495 0.20551008 -0.15877399 0.25669238 -0.022096537 0.2810016 0.16503598
0.024812182 0.32457465 -0.583057 0.080247656 -0.036963187 0.2948444 0.12059687 -0.8963418
-0.78667855 0.29581955 -0.94870347 0.20958096 0.08832206 -1.0775124 -0.09696117 -0.026789196
-0.52871466 0.040551174 -0.30269727 -0.33400872 0.19778353 -0.26783594 0.051367763 -0.1623447
-0.5143449 0.108418874 -0.07800467 -0.0061489707 -0.19992745 0.2678298 0.015723819 0.08577238
0.006577178 -0.5840212 0.071880154 0.22123525 0.04722643 -0.13186365 0.065093234 -0.006057512
0.2887004 -0.046987254 0.28069264 0.163878 0.122573726 -0.05289462 0.19806291 -0.104945466
0.20882416 -0.03051884 0.112987384 0.5203086 0.1518694 0.07189361 0.06481694 -0.020183189
-0.17976905 0.022302829 -0.5226478 0.12158982 0.05412899 0.03806671 -0.062284715 0.13236918
-0.023270035 -0.022718357 -0.10720471 0.114327304 -0.02285221 0.013231207 0.041848905 0.12544322
-0.02427463 -0.07864439 0.045448117 0.0330577 -0.64843297 -0.59403867 0.07977273 0.14734879
00000000: ba94 d93b 245a bc3d f7d8 12be d2ff 953e
00000010: 6866 663e b832 babc 3716 abbd cfce 07bd
00000020: e55c 5fbf 8da0 42be 799b 923a 4cc8 63be
00000030: ec41 833e 4107 e63d 224a d33d b37b 373e
00000040: 0ccf 51bd f220 50bb 99b4 49bd 504e 743e
00000050: 1bea c9bd d1ba 0abd a44c b33d 54bd 633f
00000060: 8259 533e 804d 663e 7378 eb3d cee6 1abe
00000070: 7e0f 07be e93d 983d 7110 763e 724b 323e
00000080: 4bc0 1ebf 4664 14be 948d 243e 0b98 dd3d
00000090: 7ec4 4dbe 58e1 91be 70a3 103d 40b9 32bd
000000a0: 7fae 51be 72c1 bd3c 7bcd 733d a1ab fe3c
000000b0: e1ba 83be b4dd 56bd 8cdc c1bd 67ed 3dbd
000000c0: 1583 173c f263 34be ac87 303d ba4b f9bd
000000d0: 5471 353f f4b2 2bbe 8603 c33d ba30 d8bd
000000e0: 91c3 8fbd 3b7b ad3e e87f 3f3e 7851 fb3c
000000f0: 7656 7dbd 85df ae3d 0422 85bf 096f 08bf
00000100: d95b 103e 55c6 0b3e 762b 16be b434 463e
00000110: e162 633e 9a9d 683e bc46 28bf 0afe c93e
00000120: eece 86bd f6de 26be 6d53 5f3e da38 4e3d
00000130: 3ce2 4c3d 998c 35be 1932 14be d7ba 5cbe
00000140: e200 103e 9129 c73c 2c97 33be 1ba2 65bf
00000150: e1ce c0be 1c8e 1bbc 2a63 13be 443f 3bbf
00000160: c8aa 85bc 82cd c2be 51dc 5abe 1adb 64bd
00000170: db6d 993d 8b31 4cbe f4da d3bc a548 ad3e
00000180: 3a01 9c3a 5e19 133e 12cd 0cbf aa91 113d
00000190: fca8 e73c 0e89 18bf 2b57 6c3e 1939 76bd
000001a0: 9e28 033e f135 483d e26a a23e 1d7b 9d3c
000001b0: 93f4 a63d 6e2d 323d e9ec 8fbe 2508 9bbe
000001c0: fec7 dabc c952 06bf 1e68 753e 87e9 1e3d
000001d0: 796c 723d 790a 5bbd 71e7 5e3d c273 19be
000001e0: ab37 e03b d65e c8bd 1a48 bebd 0bba 7e3e
000001f0: 3fb3 603d 6181 27bd ea7e 17bf 8814 423e
00000200: 7de4 123e 9013 02bb bfaa 48be 2f0a b3bd
00000210: 3a32 2bbd e02b ed3d 996f a23e f8cc f43d
00000220: 2fa5 313e 3360 ac3d dcf6 b53e f319 e73e
00000230: 0928 b33d f823 e53c b9ab 163e 8880 143d
00000240: 5266 1bbe b623 cbbb 36b7 d43d 9de6 63be
00000250: 9313 f83b a428 153e ed7c 523e d4b5 7d3e
00000260: 49a7 9cbe bac2 4d3e 7ecf 9d3d c106 18bf
00000270: 0742 d4be e9c6 883e f0e6 31bf 55ac 493d
00000280: d181 7a3e 226c 873d b165 c1bb 84eb 243d
00000290: a47b 8d3b fe14 cc3e 5900 7d3c 4773 2e3e
000002a0: fecc 0abf ac37 70bf 3c71 523e a695 22be
000002b0: 2f6d 833e cc03 b5bc 71df 8f3e 31ff 283e
000002c0: eb42 cb3c a62e a63e 3943 15bf e258 a43d
000002d0: b666 17bd d8f5 963e 7efb f63d a876 65bf
000002e0: c463 49bf a975 973e 3bde 72bf 649c 563e
000002f0: 32e2 b43d edeb 89bf 9493 c6bd 0475 dbbc
00000300: d859 07bf fd18 263d 23fb 9abe 3103 abbe
00000310: c487 4a3e cb21 89be 0167 523d b03d 26be
00000320: 1bac 03bf b70a de3d eac0 9fbd 4e7d c9bb
00000330: c8b9 4cbe fd20 893e 3dcf 803c 6ea9 af3d
00000340: 5e85 d73b 6a82 15bf e735 933d 7e8b 623e
00000350: 8070 413d 4407 07be 9a4f 853d 187e c6bb
00000360: 8ad0 933e b575 40bd f2b6 8f3e a2cf 273e
00000370: ef07 fb3d 07a8 58bd 01d1 4a3e a6ed d6bd
00000380: 00d6 553e a502 fabc ee65 e73d f232 053f
00000390: a783 1b3e f53c 933d bebe 843d 3757 a5bc
000003a0: 6115 38be 6cb4 b63c 3fcc 05bf 1504 f93d
000003b0: 5cb6 5d3d d7eb 1b3d 421e 7fbd c98b 073e
000003c0: cda0 bebc d91b babc 258e dbbd 6f24 ea3d
000003d0: 8f34 bbbc b4c7 583c c269 2b3d 3074 003e
000003e0: 97db c6bc 4f10 a1bd ce27 3a3d 8367 073d
000003f0: b4ff 25bf eb12 18bf e35f a33d 9ae2 163e

arith.constant3 f4 [945]
-0.0020094581 -0.0670191 0.021319337 -0.061050225 0.16768473 -0.0727081 0.17380434 -0.078911
-0.12859304 0.22662199 0.2465078 0.16178137 0.12707889 -0.27706298 0.25945795 -0.019576738
-0.068979576 -0.155594 0.21648577 -0.37938252 0.009524396 0.19208482 0.16426364 0.36200967
0.135342 0.12765625 0.04139916 0.12854232 0.16338216 -0.70973474 0.18714358 0.017862562
-0.062135246 -0.30931666 -0.19071616 0.069495544 0.12648849 0.19209054 -0.008979759 0.32268944
0.24338956 0.1712706 0.17264645 -0.2819071 -0.10322813 0.0005881308 0.1188568 0.059997585
0.18653342 0.16650164 -0.043407533 0.058457557 -0.5635072 -0.19423097 0.25071463 0.2534019
0.14173654 0.32605982 0.23397599 0.20365234 -0.052554443 0.23297676 -0.5777654 0.013055192
-0.5860555 -1.281455 0.023438668 0.05833113 -0.25214913 0.4182214 -0.03131609 -0.24966054
-0.11178278 -0.20056859 -0.6612395 -1.1900146 -0.007966916 -0.17172301 -0.7039375 0.1799411
-0.047724567 0.29356027 0.30925253 0.08348029 -0.3139074 0.04953324 0.018362543 -0.42387667
0.1677763 -0.29529154 -0.08202899 0.04947161 -0.39607245 0.1579348 -0.11780985 0.11653345
-0.5862785 0.35074845 0.21698338 -0.9974912 0.3299095 0.08215043 -0.4816917 0.030891707
0.1362213 0.045767304 -0.018471418 0.26812524 0.15498824 0.170121 -0.0009862783 0.1656218
-0.09502482 0.09133727 -0.083194144 -0.14689137 -0.1506129 0.18011911 -1.1176909 -0.6860891
-0.8293472 0.042689987 0.110561825 0.029123722 -0.078028746 0.19148679 -0.00248581 0.25269207
0.15617868 -0.13974997 0.13536647 -0.04028648 -0.7154649 -0.025725268 0.13358717 -0.15774307
-0.22778222 0.2258877 -0.081138775 -0.06186999 0.013708826 -0.027308766 -0.8531714 0.018080411
-1.2390668 -0.09080206 0.30085793 0.35407934 -0.67536145 -0.1051823 -0.70119905 0.04187776
-0.34009692 -0.25794294 0.020210607 -0.8231885 0.2381762 0.061187126 -0.19134578 -0.06631056
0.1902609 0.17775595 -0.051383883 0.17024523 -0.26365998 0.21494669 -0.1702128 -0.281127
0.20347539 0.025106303 0.1520565 0.09275547 0.01759991 0.13648905 0.11171574 -0.48561522
-0.56753486 0.059817992 -0.057824895 0.078036815 -0.20585842 -0.061043497 -0.169072 0.08774712
-0.5644692 -0.106604815 0.15497524 0.07735249 0.09909843 -0.016773758 0.11865258 -0.018234128
0.095403135 0.088674836 0.027083257 0.07278054 -0.29126146 -0.04424979 -0.005480624 -0.28387305
0.17553395 -0.65584576 0.07627613 -0.18594757 0.2506592 0.14567296 0.05073407 0.22887582
0.19186726 0.08498502 0.016947659 0.21412794 -0.44376063 -0.67940897 -0.05426204 0.10653687
0.04662894 -0.051478118 0.19400898 -0.05251155 0.20927465 0.29076666 0.11769585 0.006974913
0.14929983 0.2551241 0.2139781 0.027238328 0.14301202 -0.036906812 -0.2090842 -0.09407711
0.21182978 -0.06347613 0.16523394 0.1626919 0.03539847 0.17034386 0.23760334 0.17149483
-0.18585953 -0.6334599 0.18115392 0.10395984 -0.703366 0.36275673 -0.0097409645 0.22725283
-0.07711764 -0.13389 0.21501228 -0.015513597 0.016723478 -0.0017672163 0.12061537 -0.00801649
00000000: 1db1 03bb 4f41 89bd e4a5 ae3c cd0f 7abd
00000010: 8cb5 2b3e fce7 94bd c4f9 313e 179c a1bd
00000020: e5ad 03be 980f 683e 8a6c 7c3e 04aa 253e
00000030: f820 023e 33db 8dbe acd7 843e 655f a0bc
00000040: 2a45 8dbd 0954 1fbe 72ae 5d3e 6d3e c2be
00000050: 360c 1c3c e2b1 443e ba34 283e 5559 b93e
00000060: 1897 0a3e 52b8 023e 2a92 293d 99a0 033e
00000070: a74d 273e 2db1 35bf 91a2 3f3e 8254 923c
00000080: 8781 7ebd c15e 9ebe 194b 43be ae53 8e3d
00000090: 3386 013e 62b3 443e d71f 13bc 8d37 a53e
000000a0: 1d3b 793e 8f61 2f3e 3bca 303e 2156 90be
000000b0: 4569 d3bd ca2c 1a3a 326b f33d 07c0 753d
000000c0: 9e02 3f3e 687f 2a3e 19cc 31bd 3171 6f3d
000000d0: 0242 10bf 7ce4 46be ab5d 803e e5bd 813e
000000e0: 6223 113e 50f1 a63e 6797 6f3e 3d8a 503e
000000f0: 5443 57bd 7691 6e3e 6fe8 13bf 72e5 553c
00000100: bc07 16bf b806 a4bf 7302 c03c 9fec 6e3d
00000110: b119 81be 1e21 d63e 4d45 00bd 03a7 7fbe
00000120: 5fee e4bd da61 4dbe fe46 29bf 6652 98bf
00000130: ab87 02bc 28d8 2fbe 3f35 34bf 7b42 383e
00000140: d67a 43bd 884d 963e 5956 9e3e b7f7 aa3d
00000150: 79b8 a0be 5ee3 4a3d 0b6d 963c 5d06 d9be
00000160: 8dcd 2b3e 7430 97be d1fe a7bd bea2 4a3d
00000170: 02ca cabe a9b9 213e 4a46 f1bd 17a9 ee3d
00000180: 5916 16bf 4d95 b33e e430 5e3e 955b 7fbf
00000190: e6e9 a83e 7c3e a83d 4ba0 f6be 9b10 fd3c
000001a0: 997d 0b3e 7f76 3b3d 5f51 97bc b647 893e
000001b0: 3db5 1e3e 3334 2e3e 0246 81ba c398 293e
000001c0: 5f9c c2bd 090f bb3d b161 aabd b16a 16be
000001d0: 453a 1abe 2571 383e 7f10 8fbf 89a3 2fbf
000001e0: 1950 54bf b2db 2e3d 3d6e e23d df94 ee3c
000001f0: 89cd 9fbd 1d15 443e f9e8 22bb db60 813e
00000200: 4eed 1f3e 9e1a 0fbe 829d 0a3e 7003 25bd
00000210: b528 37bf ccbd d2bc 13cb 083e 6687 21be
00000220: be3f 69be 1b4f 673e 162c a6bd 636b 7dbd
00000230: fc9a 603c a2b6 dfbc 7169 5abf 5f1d 943c
00000240: be99 9ebf 6ef6 b9bd 0d0a 9a3e e349 b53e
00000250: 7de4 2cbf d169 d7bd c881 33bf 0488 2b3d
00000260: 2f21 aebe 1911 84be b790 a53c 7bbc 52bf
00000270: 76e4 733e 5a9f 7a3d 26f0 43be d5cd 87bd
00000280: c1d3 423e a805 363e e877 52bd c454 2e3e
00000290: 71fe 86be fc1a 5c3e 444c 2ebe e1ef 8fbe
000002a0: da5b 503e bcab cd3c b3b4 1b3e 94f6 bd3d
000002b0: b02d 903c c9c3 0b3e 39cb e43d 8fa2 f8be
000002c0: f749 11bf b603 753d ccd9 6cbd c4d1 9f3d
000002d0: 8dcc 52be bf08 7abd 3621 2dbe c3b4 b33d
000002e0: 0e81 10bf a053 dabd d4b1 1e3e fb6a 9e3d
000002f0: 1ef4 ca3d 1f69 89bc 2000 f33d bd5f 95bc
00000300: b862 c33d 279b b53d b5dd dd3c f70d 953d
00000310: 3920 95be 453f 35bd ce96 b3bb cf57 91be
00000320: 2cbf 333e 82e5 27bf a936 9c3d 0a69 3ebe
00000330: 6756 803e 4b2b 153e 87ce 4f3d 6c5e 6a3e
00000340: da78 443e a00c ae3d d1d5 8a3c 5b44 5b3e
00000350: 9834 e3be bfed 2dbf df41 5ebd 0130 da3d
00000360: fdfd 3e3d b8da 52bd 4aaa 463e 5a16 57bd
00000370: 184c 563e 5edf 943e 860a f13d d08d e43b
00000380: 0ee2 183e a09f 823e 131d 5b3e ea22 df3c
00000390: be71 123e 992b 17bd 2b1a 56be 80ab c0bd
000003a0: e8e9 583e c6ff 81bd 1633 293e b598 263e
000003b0: fcfd 103d 9f6e 2e3e 4a4e 733e 579c 2f3e
000003c0: f651 3ebe 6e2a 22bf 6a80 393e e6e8 d43d
000003d0: cb0f 34bf 40bb b93e 9198 1fbc f7b4 683e
000003e0: daef 9dbd 761a 09be 2e2c 5c3e be2c 7ebc
000003f0: adff 883c f0a1 e7ba 3105 f73d 9957 03bc

arith.constant4 f4 [64]
0.32499796 -0.17864217 0.29031107 0.29414526 0.23071729 0.5630704 -0.12329966 -0.3571061
0.2516122 -0.7555316 0.2699798 0.40147805 0.59967726 0.4446834 0.81588525 0.36289793
0.3253354 -0.10090821 0.6087155 0.31962422 0.15263784 1.2489302 0.46592328 -0.40731233
0.3197106 -0.021750752 -0.09842014 -0.15715873 0.77712333 0.5420341 0.13007908 0.36488283
-0.14003898 0.6007271 0.08606704 0.5773463 -0.09285221 -0.46314907 -0.3041199 -0.042866647
0.053566936 0.46793175 0.9203362 -0.08418038 0.33970454 0.9218264 -0.45981374 0.27963895
0.33681902 -0.10175825 0.21166785 -0.07090876 0.1937762 1.0530528 0.18864428 0.09650444
0.7365852 0.22464877 -0.09640326 0.16102467 0.2727101 0.25028527 -0.2441439 0.22646214
00000000: 2266 a63e f9ed 36be a7a3 943e 359a 963e
00000010: 2741 6c3e 6225 103f 8884 fcbd 9cd6 b6be
00000020: 50d3 803e 856a 41bf cb3a 8a3e 888e cd3e
00000030: 7384 193f 8bad e33e dbdd 503f c2cd b93e
00000040: 5d92 a63e f7a8 cebd c7d4 1b3f c9a5 a33e
00000050: 184d 1c3e f2dc 9f3f 7f8d ee3e 3e8b d0be
00000060: 1cb1 a33e a22e b2bc 8090 c9bd 38ee 20be
00000070: 8ef1 463f bfc2 0a3f 7333 053e ecd1 ba3e
00000080: 6166 0fbe 40c9 193f eb43 b03d f8cc 133f
00000090: 4d29 bebd e021 edbe 9bb5 9bbe f094 2fbd
000000a0: 0169 5b3d c094 ef3e 279b 6b3f c366 acbd
000000b0: c1ed ad3e d1fc 6b3f b56c ebbe d62c 8f3e
000000c0: 8b73 ac3e a166 d0bd 75bf 583e 9d38 91bd
000000d0: 456d 463e 6fca 863f f72b 413e 1fa4 c53d
000000e0: d990 3c3f 540a 663e 136f c5bd a7e3 243e
000000f0: a9a0 8b3e 6425 803e dc00 7abe b1e5 673e

sequential_1/dense_1_2/Add/ReadVariableOp f4 [128]
-0.13703588 0.16245714 0.077255644 -0.4666596 0.17461026 0.19840467 0.40146437 0.049922794
0.06493962 -0.071047716 0.11425604 0.42405355 -0.06454383 -0.1266505 0.2465772 0.36726555
0.19996396 0.025838127 -0.07341981 0.41190633 -0.20737004 -0.17129415 -0.06721355 -0.1749501
-0.19642924 -0.20736961 -0.14369494 0.12911999 -0.016033093 -0.19240557 -0.014687044 0.2897735
-0.23011285 0.039533243 0.089506656 0.1886327 0.3219569 -0.039413802 0.38872033 -0.23389487
0.51978266 -0.14388089 0.23291756 -0.18747291 -0.38386032 -0.12144474 0.007839187 0.12170563
0.22878009 0.4950723 0.014054034 0.17677134 -0.020676978 0.15992987 -0.38115105 -0.1348745
0.19578686 0.1210566 -0.13964766 0.0045433454 -0.05412403 0.4534865 0.3730505 -0.03704638
-0.18510908 0.049468715 -0.110439315 0.38213825 0.10919433 0.00016032095 0.27899048 -0.12422527
-0.15391755 -0.059601992 0.11532582 -0.056478467 -0.0061774007 -0.39956036 0.4180933 0.2607264
0.2898045 0.17628004 0.023013787 -0.36141586 0.021416033 0.23690362 0.03671003 0.26667306
0.08480641 -0.17470406 -0.27111366 0.46408206 -0.15273939 0.008688021 -0.21605957 -0.018307514
-0.15848264 -0.29928243 0.048236217 0.14572038 0.4059811 0.4142436 0.08244031 -0.04462975
-0.111741394 0.046490323 0.22352816 0.10718319 0.043505806 -0.024023945 0.25829476 0.20295298
0.054649744 0.101688944 0.24538977 0.20021631 -0.045955468 -0.07281576 0.18776415 -0.19050464
0.07761499 0.02035796 0.027564546 -0.24019925 0.072967894 -0.013079576 0.13626647 0.12511183
00000000: 2253 0cbe 2a5b 263e 3538 9e3d 02ee eebe
00000010: 08cd 323e 982a 4b3e bd8c cd3e d87b 4c3d
00000020: 10ff 843d 7781 91bd 12ff e93d 8c1d d93e
00000030: 8e2f 84bd abb0 01be bc7e 7c3e 3b0a bc3e
00000040: 5ac3 4c3e 7baa d33c 205d 96bd 63e5 d23e
00000050: d058 54be bc67 2fbe 42a7 89bd 1e26 33be
00000060: bf24 49be b358 54be c424 13be 0838 043e
00000070: d557 83bc f705 45be eda1 70bc 315d 943e
00000080: b4a2 6bbe 9ced 213d 444f b73d ee28 413e
00000090: 89d7 a43e 5e70 21bd 5a06 c73e 2382 6fbe
000000a0: 7a10 053f 8355 13be f181 6e3e e6f8 3fbe
000000b0: 5789 c4be 05b8 f8bd ef6f 003c cd40 f93d
000000c0: 5445 6a3e 1e7a fd3e e442 663c 8c03 353e
000000d0: c462 a9bc a8c4 233e 3b26 c3be 8a1c 0abe
000000e0: 5a7c 483e 86ec f73d ccff 0ebe 58e0 943b
000000f0: 29b1 5dbd 622f e83e 7a00 bf3e f2bd 17bd
00000100: 3c8d 3dbe b59f 4a3d 022e e2bd a0a7 c33e
00000110: 47a1 df3d d41b 2839 d7d7 8e3e d169 febd
00000120: 909c 1dbe 3821 74bd f22f ec3d f755 67bd
00000130: cb6b cabb 2d93 ccbe 5310 d63e ee7d 853e
00000140: 4161 943e c182 343e 6987 bc3c 800b b9be
00000150: ad70 af3c dd96 723e 425d 163d 5f89 883e
00000160: fcae ad3d 9fe5 32be 69cf 8abe 2a9c ed3e
00000170: b767 1cbe 3458 0e3c b83e 5dbe a4f9 95bc
00000180: 4649 22be 8c3b 99be 5793 453d b937 153e
00000190: c1dc cf3e bd17 d43e 77d6 a83d afcd 36bd
000001a0: acd8 e4bd a36c 3e3d 91e4 643e dc82 db3d
000001b0: 2533 323d ddcd c4bc 363f 843e e8d2 4f3e
000001c0: 69d8 5f3d 4b42 d03d 7547 7b3e 8105 4d3e
000001d0: cd3b 3cbd 6e20 95bd 3f45 403e a613 43be
000001e0: 9cf4 9e3d bdc5 a63c 0bcf e13c cbf6 75be
000001f0: 3170 953d b84b 56bc 7089 0b3e 511d 003e

sequential_1/dense_1/Add/ReadVariableOp f4 [256]
0.16463952 -0.102887765 0.036092535 -0.19263262 0.12465296 0.17605944 -0.03976562 -0.12564977
-0.26532564 -0.16939436 -0.08548425 -0.21162431 0.007857495 -0.025686739 0.08633977 0.020336809
0.0031407098 -0.06480719 0.07812994 0.15972845 0.015290789 -0.07240408 -0.14157477 0.17115813
-0.012431764 0.15447988 0.022871537 -0.16515295 -0.041702442 -0.14491536 0.13081133 -0.064699955
-0.20872474 -0.22974606 -0.11577952 -0.07416025 0.03460072 -0.2546453 -0.04015353 -0.011018414
0.028295487 -0.18444012 0.20951337 0.19241197 0.08276495 -0.09960624 -0.29438004 -0.21220642
0.116462484 -0.10191843 -0.116547 -0.21546446 0.17793952 -0.07879863 -0.010786049 0.18223098
0.15929386 -0.108390756 -0.051073395 0.000977334 -0.1822397 -0.049676172 -0.23086044 -0.25654685
-0.05410651 0.13840044 -0.11821599 -0.017231075 0.14195886 -0.034702405 -0.24553406 0.15769677
-0.115783125 -0.1852457 0.1363819 -0.0006329356 -0.023493608 -0.009086969 -0.0809296 -0.057293978
0.009095585 0.038816646 -0.014997819 -0.18743092 -0.21586668 -0.015386277 -0.25233087 -0.19791345
0.17518036 -0.2751953 -0.023555622 0.1699292 -0.07773871 0.09884806 -0.037348785 0.076872185
-0.20343623 0.10515642 -0.03006215 0.21301726 0.0138774635 -0.25009373 0.097812615 0.004246822
0.0008823108 -0.08133248 0.109610826 -0.22460619 -0.09472291 0.15876155 -0.071576424 0.18424696
-0.08625243 -0.20338814 0.17110059 0.04701529 -0.122441456 -0.09446319 -0.052067176 0.014095378
-0.28169563 0.033895407 -0.0688515 0.09543416 0.019233765 -0.06303817 -0.17988577 0.09836554
0.15989104 -0.16440876 -0.20018055 -0.07708224 -0.047210038 -0.026763221 -0.016727978 -0.161504
0.08629689 -0.013023004 0.16668305 0.10263992 0.1346357 0.010109574 -0.063112915 -0.14443949
-0.1186283 0.09258786 0.20388725 -0.016215626 -0.22074625 -0.12466813 0.14276734 0.18191302
-0.2176593 -0.052399624 -0.15599485 -0.25725242 0.05103375 0.16294739 -0.22020575 -0.15560326
0.21077867 0.0069909315 0.040440023 -0.10205465 -0.17923975 0.18340042 -0.03641405 0.13380538
-0.25205788 -0.27996728 -0.084534034 -0.106968075 0.14604005 0.15946281 -0.21171454 -0.24953437
0.17653805 0.09967864 -0.2532609 -0.19392017 -0.031175612 0.08704419 -0.1652542 -0.2574365
-0.2031907 0.07359982 -0.27464986 -0.0980678 0.050759893 -0.28798857 -0.09323069 0.044509545
-0.19804968 0.033554845 -0.10144641 -0.21329866 0.008035921 -0.22524394 -0.08195128 -0.07887977
-0.15235241 0.016688779 0.10944439 0.06975182 -0.0661365 0.13963002 0.06576764 0.14376022
0.07281831 -0.26823348 0.08930492 0.15023242 -0.21624099 0.124377035 0.06440105 0.107788816
0.13506754 -0.053021614 -0.18543361 -0.23176038 0.03060279 -0.0876321 -0.15457682 0.07208522
-0.16305593 -0.05968294 0.14178142 0.123695016 -0.1023476 0.061597716 0.14782718 -0.029101975
-0.018515915 -0.10863456 -0.21055862 0.046601262 -0.08007311 -0.091970965 -0.03335487 0.03591143
0.020430043 0.012311429 0.027102916 -0.06470942 -0.12700932 -0.034712505 -0.074164785 -0.0052234656
-0.18010053 -0.14281103 -0.051577657 -0.17231645 -0.26516834 -0.17564009 -0.02897407 -0.010208472
00000000: 4397 283e d2b6 d2bd c4d5 133d 7c41 45be
00000010: 0d4a ff3d ed48 343e 46e1 22bd 55aa 00be
00000020: c3d8 87be b775 2dbe 5e12 afbd 0bb4 58be
00000030: b9bc 003c ff6c d2bc e8d2 b03d 6199 a63c
00000040: 5ed4 4d3b a2b9 84bd 9702 a03d db8f 233e
00000050: 3886 7a3c 9748 94bd faf8 10be 1444 2f3e
00000060: 99ae 4bbc f92f 1e3e 175d bb3c db1d 29be
00000070: 2ed0 2abd b164 14be 68f3 053e 6981 84bd
00000080: f0bb 55be 8d42 6bbe d01d edbd 54e1 97bd
00000090: 7cb9 0d3d de60 82be 0778 24bd 9486 34bc
000000a0: f0cb e73c dfdd 3cbe ac8a 563e a507 453e
000000b0: ac80 a93d 5bfe cbbd fbb8 96be a44c 59be
000000c0: e283 ee3d 9cba d0bd 32b0 eebd b7a2 5cbe
000000d0: c735 363e 2d61 a1bd f8b7 30bc c29a 3a3e
000000e0: ee1d 233e f9fb ddbd 5632 51bd e319 803a
000000f0: 0b9d 3abe 3e79 4bbd ae66 6cbe 1c5a 83be
00000100: ca9e 5dbd d8b8 0d3e 3a1b f2bd 2f28 8dbc
00000110: aa5d 113e 1c24 0ebd 486d 7bbe 437b 213e
00000120: b41f edbd 0cb1 3dbe b2a7 0b3e 97eb 25ba
00000130: ab75 c0bc 83e1 14bc 6bbe a5bd 17ad 6abd
00000140: a605 153c 34fe 1e3d 6ab9 75bc e4ed 3fbe
00000150: 280c 5dbe b916 7cbc 8331 81be d3a9 4abe
00000160: 7b62 333e 66e6 8cbe b8f7 c0bc ec01 2e3e
00000170: 7935 9fbd da70 ca3d 0afb 18bd 2a6f 9d3d
00000180: 9651 50be 405c d73d e644 f6bc 3221 5a3e
00000190: 4d5e 633c 490c 80be fb51 c83d ed28 8b3b
000001a0: e04a 673a a591 a6bd a47b e03d 2aff 65be
000001b0: 16fe c1bd 6392 223e a996 92bd 3cab 3c3e
000001c0: 1da5 b0bd fb44 50be fe34 2f3e 1b93 403d
000001d0: 96c2 fabd eb75 c1bd 6444 55bd 4df0 663c
000001e0: 693a 90be e9d5 0a3d 0402 8dbd fc72 c33d
000001f0: 2190 9d3c 281a 81bd fa33 38be df73 c93d
00000200: 7aba 233e c55a 28be 21fc 4cbe 4bdd 9dbd
00000210: 505f 41bd 8b3e dbbc 1d09 89bc 4e61 25be
00000220: 6dbc b03d 705e 55bc f6ae 2a3e e134 d23d
00000230: f1dd 093e a0a2 253c 5841 81bd f2e7 13be
00000240: 65f3 f2bd b49e bd3d d2c7 503e a2d6 84bc
00000250: 4e0b 62be 0152 ffbd 9a31 123e 6847 3a3e
00000260: 14e2 5ebe fda0 56bd 1dbd 1fbe 97b6 83be
00000270: c408 513d aedb 263e 9e7d 61be 7656 1fbe
00000280: 5dd6 573e 2f14 e53b 70a4 253d 0702 d1bd
00000290: a08a 37be 52cd 3b3e e626 15bd 4704 093e
000002a0: bb0d 81be df57 8fbe 2e20 adbd 1412 dbbd
000002b0: 868b 153e 384a 233e b2cb 58be f085 7fbe
000002c0: 64c6 343e 5124 cc3d 6aab 81be 0293 46be
000002d0: ff63 ffbc 3944 b23d 6638 29be b8ce 83be
000002e0: 3911 50be 81bb 963d e89e 8cbe c5d7 c8bd
000002f0: 9be9 4f3d 3d73 93be bbef bebd a44f 363d
00000300: 89cd 4abe ce70 093d 23c3 cfbd f76a 5abe
00000310: 18a9 033c 59a6 66be 13d6 a7bd b88b a1bd
00000320: 4502 1cbe e8b6 883c 6124 e03d 0bda 8e3d
00000330: 9372 87bd 2cfb 0e3e 2fb1 863d e135 133e
00000340: c421 953d e655 89be 7fe5 b63d 87d6 193e
00000350: 476e 5dbe 63b9 fe3d b3e4 833d 62c0 dc3d
00000360: 254f 0a3e 312d 59bd 4fe2 3dbe 9852 6dbe
00000370: b4b2 fa3c 7578 b3bd 6349 1ebe 6aa1 933d
00000380: 22f8 26be 1976 74bd 262f 113e d053 fd3d
00000390: 9e9b d1bd e34d 7c3d 0260 173e 4467 eebc
000003a0: b0ae 97bc cc7b debd ae9c 57be f7e0 3e3d
000003b0: 5ffd a3bd 465b bcbd 1e9f 08bd dd17 133d
000003c0: e85c a73c e0b5 493c ef06 de3c 5f86 84bd
000003d0: bb0e 02be b32e 0ebd b5e3 97bd 9b29 abbb
000003e0: 466c 38be 0e3d 12be 1843 53bd b973 30be
000003f0: 25c4 87be ffda 33be 075b edbc 6f41 27bc

sequential_1/dense_1/MatMul f4 [256, 30]
0.15180418 -0.48744527 0.114175856 0.33070043 0.14163406 -0.18298613 -0.039328564 -0.10405621
0.22004223 0.02944629 -0.23701747 0.16458663 -0.11992897 -0.15805335 -0.32752076 0.10197756
-0.26235268 0.005378077 -0.20559716 0.48432323 -0.35363415 -0.20999615 -0.19331509 -0.1216951
0.40403908 0.3615722 0.31009796 -0.00645779 0.001664739 -0.0039213044 0.6354121 0.10387812
0.067725025 -0.25681856 0.30504578 -0.27235857 0.06341543 -0.03640011 -0.10073094 0.21167846
-0.22544158 0.26713932 -0.60254896 0.16202573 0.27682123 -0.00025711016 0.41912806 0.1914856
0.19069487 0.23116499 -0.10861753 -0.1395324 0.09880792 -0.03868988 0.15843672 -0.082406074
-0.16593736 -0.033056937 -0.10329063 -0.074556954 -5.58492 -0.0064748605 -0.022640793 -0.035631254
0.028366627 0.0017833633 -0.011574748 0.17373341 0.060387347 0.022959134 -0.4206738 -0.10758224
0.049985997 0.02993958 -0.013147326 0.032642238 0.30044717 -0.05551756 -0.101167016 0.08912163
0.04403253 0.015513947 -0.25836667 0.13537686 -0.23630834 0.03719039 0.22194588 0.007675245
0.0136901215 0.03385071 1.6898918 0.53421044 -0.0034676283 -0.045422766 -0.026264071 -0.024212707
-0.32246107 -0.16109489 0.19506234 -0.09343891 -0.14802949 -0.34897164 -0.08734527 -0.13873419
-0.06550836 -0.043841537 -0.17064175 -0.2217386 0.13721618 0.025162514 -0.041083764 -0.02220418
0.1839941 -0.08600055 0.066098794 0.12510563 0.091262005 -0.020751974 -0.043193385 -0.16761851
2.0040784 -0.39798462 0.11451126 0.13677852 -0.3043358 0.13938177 0.081730984 0.10161149
0.046133067 0.09229792 -0.001531376 -0.5991495 -0.025642235 -0.15179023 -0.017734582 -0.0030077198
-0.31296596 -0.21411762 -0.16512257 -0.0006138701 -0.009517466 -0.523258 0.03811243 -0.053497735
0.21145698 0.056093 0.21512844 0.05127097 -0.015892541 0.15065488 0.73883784 -0.8215846
0.048567917 0.114235215 -0.43652362 0.11313119 0.12472866 -0.11951 0.116295524 0.23234177
0.106102735 -0.07445893 0.13484941 0.39531663 -0.055454455 -0.058535088 0.08198428 0.060613886
0.05651701 0.13296607 0.047153737 0.023137916 0.11949493 0.04672937 -0.08200811 0.08573721
0.08548523 0.02191084 -0.020271434 0.0111868 -0.46410635 -0.1317574 -0.422244 0.2044517
-0.4196938 0.07620562 0.027462184 0.15154716 -0.083421454 -0.16744499 -0.3627631 0.021294639
0.20767128 -0.17684913 0.05879539 -0.16799119 0.37918207 0.1295879 -0.41919985 -0.35135463
-0.21857437 -0.4575547 -0.27903304 0.031226281 0.06593851 -0.124808826 -0.39712763 0.04823447
0.20249498 -0.027482612 -1.4591106 0.079218745 -0.524575 0.08056102 -0.18023382 0.067683354
0.10112439 -0.046809584 -0.25816372 -0.16644846 0.13830528 0.12012043 0.20206487 -0.09297702
-0.31138602 -0.03923492 0.086123124 0.26947245 -0.11926231 0.34530652 -0.10020368 0.021591328
-0.02740783 0.0100026345 0.16953628 -0.05166038 0.1542543 -0.44838735 0.3847904 0.107729636
0.4993582 0.7096055 -0.043752078 -0.15704614 -0.13866733 -0.3579065 -0.032550905 -0.13005258
-0.106760025 -0.07832893 -0.12642176 -0.1322665 -0.11830307 -0.08844291 0.043201942 -0.067199744
00000000: 8e72 1b3e 6d92 f9be 08d5 e93d 9151 a93e
00000010: 8508 113e b760 3bbe fd16 21bd 6c1b d5bd
00000020: c052 613e 5939 f13c b5b4 72be 6689 283e
00000030: 529d f5bd bdd8 21be cdb0 a7be 9cd9 d03d
00000040: 1753 86be 943a b03b 1088 52be 37f9 f73e
00000050: 890f b5be 3b09 57be 64f4 45be 483b f9bd
00000060: 36de ce3e fe1f b93e 29c5 9e3e de9b d3bb
00000070: 5f33 da3a 497e 80bb 5eaa 223f 0dbe d43d
00000080: 6bb3 8a3d b97d 83be f62e 9c3e 9572 8bbe
00000090: f3df 813d 4818 15bd 064c cebd 3dc2 583e
000000a0: 28da 66be 7cc6 883e a640 1abf 13ea 253e
000000b0: 83bb 8d3e becc 86b9 f497 d63e cd14 443e
000000c0: 8445 433e 84b6 6c3e de72 debd 95e1 0ebe
000000d0: cf5b ca3d 4879 1ebd 3c3d 223e 84c4 a8bd
000000e0: 7ceb 29be b666 07bd 0a8a d3bd 51b1 98bd
000000f0: aab7 b2c0 112b d4bb 2f79 b9bc 14f2 11bd
00000100: 2161 e83c bebf e93a 03a4 3dbc 2ce7 313e
00000110: b958 773d cb14 bc3c 8e62 d7be 1454 dcbd
00000120: 1ebe 4c3d da43 f53c e267 57bc deb3 053d
00000130: 36d4 993e 6266 63bd a730 cfbd 6785 b63d
00000140: 745b 343d 362e 7e3c a348 84be 3ba0 0a3e
00000150: d0fa 71be f354 183d c845 633e 9f80 fb3b
00000160: 884c 603c 0ba7 0a3d 604e d83f 04c2 083f
00000170: 2641 63bb 390d 3abd c027 d7bc ba59 c6bc
00000180: 9e19 a5be 0ff6 24be 6cbe 473e e65c bfbd
00000190: 0b95 17be 69ac b2be 14e2 b2bd 5610 0ebe
000001a0: 3f29 86bd 2f93 33bd b6bc 2ebe 720f 63be
000001b0: 6682 0c3e 9e21 ce3c 7347 28bd 8ae5 b5bc
000001c0: f368 3c3e 0e21 b0bd ce5e 873d b11b 003e
000001d0: 93e7 ba3d 0b00 aabc 8ceb 30bd 30a4 2bbe
000001e0: d242 0040 a4c4 cbbe e184 ea3d ab0f 0c3e
000001f0: e7d1 9bbe 18ba 0e3e 9362 a73d af19 d03d
00000200: 07f6 3c3d b106 bd3d 74b8 c8ba dd61 19bf
00000210: aa0f d2bc e66e 1bbe 1d48 91bc 2a1d 45bb
00000220: 133d a0be a641 5bbe e415 29be 20ec 20ba
00000230: 25ef 1bbc 3cf4 05bf c81b 1c3d 7120 5bbd
00000240: 2e88 583e c6c1 653d a14a 5c3e 8201 523d
00000250: 1331 82bc 4645 1a3e 7a24 3d3f 5e53 52bf
00000260: 27ef 463d 27f4 e93d 0680 dfbe 53b1 e73d
00000270: bd71 ff3d a9c1 f4bd 592c ee3d 00eb 6d3e
00000280: 644c d93d ec7d 98bd f715 0a3e f166 ca3e
00000290: 3624 63bd 7dc2 6fbd 60e7 a73d 4446 783d
000002a0: 617e 673d 4228 083e 4724 413d ba8b bd3c
000002b0: c2b9 f43d 4c67 3f3d def3 a7bd fe96 af3d
000002c0: e112 af3d 5d7e b33c 4710 a6bc d748 373c
000002d0: 599f edbe 69eb 06be 5e30 d8be c95b 513e
000002e0: 1be2 d6be b111 9c3d 60f8 e03c 2e2f 1b3e
000002f0: ded8 aabd b376 2bbe 16bc b9be 1872 ae3c
00000300: c8a7 543e f017 35be 6fd3 703d e205 2cbe
00000310: 2724 c23e b1b2 043e 5da1 d6be c1e4 b3be
00000320: f6d1 5fbe 9c44 eabe 6bdd 8ebe 42ce ff3c
00000330: c50a 873d c59b ffbd 5054 cbbe 8291 453d
00000340: d85a 4f3e 3723 e1bc 23c4 babf 703d a23d
00000350: 8c4a 06bf 2dfd a43d 378f 38be 929d 8a3d
00000360: 4e1a cf3d 68bb 3fbd 092e 84be 7771 2abe
00000370: e69f 0d3e b301 f63d 18ea 4e3e bc6a bebd
00000380: fd6d 9fbe ccb4 20bd 5261 b03d 4bf8 893e
00000390: cc3f f4bd 04cc b03e 9637 cdbd 4ce0 b03c
000003a0: 6386 e0bc 17e2 233c eb9a 2d3e d699 53bd
000003b0: d7f4 1d3e 0793 e5be 3f03 c53e 5ba1 dc3d
000003c0: e1ab ff3e b5a8 353f 6135 33bd b4d0 20be
000003d0: cffe 0dbe 853f b7be 1954 05bd 812c 05be
000003e0: 00a5 dabd eb6a a0bd b574 01be df70 07be
000003f0: e148 f2bd 8e21 b5bd 85f4 303d 05a0 89bd
